models/reg_nn.pth (torch, 17701 bytes, 5 tensors)

layer1.weight f4 [50, 50]
00000000: 3c16 c9bd d134 a33d fa40 69bd 01a5 ac3c
00000010: cb0d 143d 7374 08be dc0f 32bd ff99 eebd
00000020: 5b43 573e b80e f43d 44a4 0dbe b12a 7cbd
00000030: c9e6 f73c dcfe 08bd c3b6 f43c 5872 0b3e
00000040: 7858 17be e567 fe3d 4ce9 03be a7f2 1b3d
00000050: 72a3 82bd e494 cd3d cf01 ae3d cba7 36be
00000060: 1751 e7bc 332c e2bd b6e2 163e 40f2 143e
00000070: 2016 b0bd bb59 073e 9335 a1bd 3a6f a6bd
00000080: 96f6 f4bb ddb1 843d 726f b2bd f2dc b7bd
00000090: 2ea1 733d e6a8 193e a0fa 0cbd 42d4 f43d
000000a0: 1b5d 073d 19fa 1abd ed87 143e f0bb f2bd
000000b0: a280 cdbd a6f6 e5bd 00b2 18be 3e4c ca3b
000000c0: dca1 10be 8fcc 613d 80f6 0abc fe24 b03d
000000d0: 9f14 553d b54c fcbd 52f6 87bd cb5c 153c
000000e0: 648d 3dba c42e 013d 656e 17bb 6232 1f3c
000000f0: 473d dc3b 48b8 23bd 04e2 e63d 9b84 65bc
00000100: fb27 123d 5d73 debd 9ac5 55ba 089d 36bd
00000110: dbaf a83d 5c78 a03d 963d d2bd 4daf 00be
00000120: c6c7 183e 5292 98bd d2d8 00bd 1aed 47bd
00000130: 1383 e139 5707 12be 2510 04be 22c7 b7bd
00000140: b7ee c73c 94ca cbbd 8d8b 09be 900d 18bd
00000150: b3f0 4e3d 8515 edbd 1439 983d 8b68 953d
00000160: cf47 ae3d 8f05 06be f224 a5bd 4f4d d6bd
00000170: 68e5 923d 77ff a53d 4263 d7bd 8a79 d83d
00000180: bb33 2b3d 1ed9 bdbd 2eaf e8bd 3662 78bc
00000190: c370 debb b707 8ebd 7010 203d 090c 3dbe
000001a0: a4f1 133c 5d1f edbd 07d9 01bd 4969 8fbd
000001b0: c9fc 90bd 6558 d63d 9e60 f03b 5285 b1bc
000001c0: 530b f33c 1ee4 683d 3c60 ab3c d3dc 15be
000001d0: 7606 02be 96d4 c43c 5e1c 363e 138c d13d
000001e0: d0b0 e3bb 7091 2fbe 1b14 093e 1f95 85bd
000001f0: a187 983d d912 0abe da6a 30bd 8e32 7b3d
00000200: db59 953d 798f 303c 05b2 ac3b 3077 07be
00000210: 03b5 863d 63a3 3b3d 9685 fa3d cf8a b5bd
00000220: f059 023e f067 1c3d 7b81 293d d404 fa3d
00000230: 1e33 203d 28fb a1bd 49f8 50bd bb06 4b3e
00000240: 13c4 a63c c8f7 17be 37ad f13a 7be2 663d
00000250: a2e4 1bbe 6f76 83bc c636 993c e34a dfbc
00000260: f773 49bd 9cb1 19bd 38a2 0c3d 5182 a83c
00000270: 7265 103c d766 023e 9420 233e a60f f23d
00000280: 42fe 9d3c 5e8e 093d 9332 ae3d 3425 e5bd
00000290: b9dc 2cbd 3f06 1dbe 280b 82bd a4f1 efbc
000002a0: f941 afbc 69fb 81bd 3de8 1fbc 98ea 7e3d
000002b0: 1e4e 9dbd df33 dfbd b65b 013e d8da c53d
000002c0: 8e06 d9bd 8fbf 07be d347 2b3c 64d7 1abd
000002d0: 8c76 93bd 4bb1 eb3c e159 513c 13f9 ad3d
000002e0: 071a 23bd 122b 073e f611 b83d 4d8b 18bd
000002f0: 749f 4cbd 8ecb 82bd 64df 353c 8b98 77bd
00000300: 4d9d 9d3d 11e2 c73d 2c90 c33d b8a3 2b3c
00000310: 7968 25be 6355 b1bd 4b9c 003e c49d e23d
00000320: 2667 d4bb 3236 633d 5e0a b53d 7ab2 c73d
00000330: b916 b63c e9ff c73d b6da d3bd 4fe1 1f3d
00000340: 89fe 833c 1a7c f63d 81c2 e9bd 362a 1dbc
00000350: 4997 7d3c 7a82 963d ecd9 db3d 7b4c abbd
00000360: 0b46 ec3d f695 afbd 4896 05bc 5013 503c
00000370: 8246 093e c975 d03c 1b2c 6538 36fd 073e
00000380: ddf4 013d 6da1 abbb 118e e4bc f5b6 63bd
00000390: 5d30 bbbd 6468 f63a f14e 973d 8b31 a3bd
000003a0: 4d5d d9bd 4de8 5bbd e72f 48bd c717 90bd
000003b0: 055b a43d c16e c4bd 7313 7fbd 134d a03c
000003c0: f8bd b7bc 39fa e6bc 0185 c0bc 9a40 923d
000003d0: ccba 05be 7ec4 cb3d 827c f43b 4032 ebbd
000003e0: 2c2d 2bb9 ae58 05be 324f cfbd dd64 87bd
000003f0: 4124 dbbc 9505 63bd 1c52 bebd 7de5 673d
-0.09818694 0.07969058 -0.056946732 0.021074774 0.036145967 -0.13325672 -0.043472156 -0.11650466
0.21021788 0.1191687 -0.13832194 -0.06156415 0.030261414 -0.033446178 0.029872304 0.13617837
-0.14779842 0.1242216 -0.12881964 0.03807321 -0.06378831 0.10038164 0.08496439 -0.17837445
-0.028236909 -0.110435866 0.14734921 0.14545536 -0.0859797 0.13217823 -0.078715466 -0.081266835
-0.0074756844 0.06479237 -0.08712663 -0.08977689 0.059479885 0.15005836 -0.034418702 0.119545475
0.033047777 -0.037836168 0.14504977 -0.118522525 -0.100343004 -0.11228685 -0.14911652 0.0061736396
-0.14124244 0.055126723 -0.008481622 0.08600806 0.05202162 -0.12319318 -0.06638779 0.009116362
-0.00072308467 0.03153874 -0.0023106572 0.009716602 0.006721172 -0.039970666 0.11273578 -0.014008666
0.03568266 -0.108618475 -0.000815475 -0.04458335 0.08236667 0.07835457 -0.10265653 -0.12566872
0.14919958 -0.074497834 -0.031456776 -0.048810102 0.00043013002 -0.14260612 -0.12896784 -0.089735284
0.02440582 -0.09950748 -0.1343214 -0.03712231 0.050522517 -0.1157637 0.07432762 0.072953306
0.0850979 -0.13088058 -0.080636874 -0.10463964 0.07172662 0.08105367 -0.10516979 0.10570057
0.04179738 -0.092699274 -0.11361538 -0.015160134 -0.0067883446 -0.06935065 0.039078176 -0.18461622
0.00902978 -0.11578248 -0.031701114 -0.070025034 -0.07079465 0.10466079 0.0073357364 -0.021670017
0.029668486 0.056858175 0.020919912 -0.14635019 -0.12697777 0.02402715 0.17784259 0.10231795
-0.006948568 -0.17145324 0.13386576 -0.06522583 0.07447744 -0.13483752 -0.04307065 0.06132751
0.07292529 0.010776394 0.005270245 -0.1322906 0.06577494 0.045810115 0.12232511 -0.08864366
0.12729621 0.03818506 0.041383248 0.12207952 0.03911125 -0.079092324 -0.051018033 0.19826786
0.020357167 -0.14840615 0.0018438463 0.056368332 -0.15223935 -0.016047684 0.018702876 -0.027257388
-0.04918286 -0.037522897 0.03433439 0.020569952 0.008813249 0.12734543 0.15930396 0.11819391
0.019286279 0.033583038 0.0850574 -0.111887366 -0.042202685 -0.15334414 -0.06349784 -0.029290028
-0.021393763 -0.06346781 -0.00975996 0.062235445 -0.07680915 -0.108985655 0.12632641 0.09660882
-0.10596953 -0.13256668 0.010454136 -0.03780307 -0.072003454 0.028771063 0.012777776 0.08494773
-0.039819743 0.13200024 0.08987801 -0.037242223 -0.049956754 -0.06386481 0.011100624 -0.06044821
0.07696018 0.097599156 0.09548983 0.010476045 -0.16153134 -0.08658864 0.12559621 0.11065248
-0.006482023 0.055471607 0.08839868 0.097508386 0.022227632 0.09765608 -0.1034445 0.03903323
0.016112583 0.12035389 -0.11414052 -0.009592583 0.015477964 0.07349105 0.10734925 -0.08364197
0.11536797 -0.08573525 -0.008153506 0.012699917 0.13405803 0.02544679 5.463893e-05 0.13280186
0.03172766 -0.0052377493 -0.027899774 -0.055594403 -0.09140084 0.0018799421 0.07388104 -0.07968434
-0.10613499 -0.053688336 -0.04887381 -0.07035785 0.08025173 -0.09591437 -0.062274408 0.019568002
-0.022429451 -0.028195487 -0.023500921 0.07141228 -0.13059539 0.09949587 0.0074611316 -0.11484194
-0.00016324659 -0.1302211 -0.10122527 -0.06611035 -0.026750686 -0.055425245 -0.09293005 0.05661534

layer1.bias f4 [50]
00000000: 71b1 bdbd 626f 5d3d 2045 d6bd 4965 b33c
00000010: 75c1 41be 2248 333d 2181 283c 7b92 89bd
00000020: 92d8 cd3c a39a 41bd d724 61bd d13d e9bd
00000030: 1bd6 46bd cb0d 933d 3145 ecbd 1227 e7bd
00000040: 8023 50be 0e24 57ba faed 7ebd 6367 7cbd
00000050: bdfe 8bbc 4f52 5b3d 8767 15be 6a83 aabc
00000060: 33fc a43d 1de6 66bd 7bc5 7b3c 387b 11bc
00000070: bb48 503b a0d3 2d3c dc09 f5bd bcf8 ac3c
00000080: 5043 8dbd 91e1 d13d 5e17 8dbd ba8a d93d
00000090: e111 ef3c 082f f33b 003d c6bd 5d3d 283d
000000a0: af98 61bd a780 c53d e782 bdbd 5239 a93c
000000b0: 9ed3 e7bc e04c 80bd c177 523d b5be b1bd
000000c0: a859 d33d c99f ba3d
-0.0926236 0.0540613 -0.10462403 0.021898882 -0.18921454 0.043769963 0.010284693 -0.06717392
0.025127683 -0.047266614 -0.054966774 -0.11388744 -0.04854403 0.07180365 -0.11536635 -0.11286749
-0.20326042 -0.00082069717 -0.06223867 -0.061622035 -0.017089242 0.053545292 -0.14590274 -0.020814616
0.08055916 -0.056371797 0.015366907 -0.008879475 0.0031781632 0.010609537 -0.11964771 0.0211147
-0.068976045 0.102481015 -0.068892226 0.10622163 0.02918333 0.007421378 -0.096796036 0.041074146
-0.05507725 0.09643679 -0.09253483 0.020657215 -0.02829915 -0.06264663 0.051383737 -0.086789526
0.10319835 0.09112508

layer2.weight f4 [25, 50]
00000000: b4e9 913d 0a85 a7bd 9e29 763d 8b8e 883c
00000010: 8bf0 32be 8fcf 1b3d 8751 f1bd 6e37 9fbd
00000020: a856 163e 930c 3cbc b00b 343d 95b6 c73d
00000030: e9a3 843d ab46 2cbc c72c acbd 63a8 b83d
00000040: 2ed3 b0bd 4d54 4e3d 24b9 55b9 9391 ce3d
00000050: 9295 afbc 9e3d 97bc 8daf e03c 98b7 c03d
00000060: 24de dcbd b4b4 d0bc 61f2 bebd 9936 41bd
00000070: 5a8f c1bc 28ae c73d 1683 24be c113 20bd
00000080: ba53 8cbd 83d3 4d3c e5f2 c63d d3c5 07be
00000090: a059 b43d 0a40 56bd b4d1 b3bd de10 8b3d
000000a0: 210c cf3c 284d 06bd 5ccc fd3c 8b03 e33d
000000b0: 553d f2bd 6cad 803d c7ab 5c3c a5e2 133e
000000c0: e5e4 10bc 0850 c2bc 92c3 c93c d43e d33d
000000d0: 6176 ad3b 3ab6 7abc 9425 b93d dec1 e7bd
000000e0: 0a6a 24bd 6c45 ca3d 3d77 f0bd de70 09be
000000f0: 228a 8cbb bafa df3a 7ca6 ea3d 2e9d 293c
00000100: fa2f 21bd 8b84 663d 704e d5bd f03b 283d
00000110: d00b 03be e1ee 4a3d 695a aebd bd58 073b
00000120: 56ef 4c3d 91a1 853d 9608 413d 3f81 9abd
00000130: 7287 1a3d e5c7 bb3d 629c ecbb b1d4 bf3c
00000140: 06e2 fa3d ceb7 163e 00ef a83d e649 66bb
00000150: 0027 eb3c 89dc 1f3d 8d2a c4bd 5f41 9f3d
00000160: f332 f73d b812 923d b6c4 a03b d7c3 a63d
00000170: 1d83 923d aea6 4a3d 8b92 dabd d661 debd
00000180: 01a9 cdbd c534 54bd a31c 14bd 6f37 82bd
00000190: 3cc3 efbd 38b6 d53d 76fc c3bc 944e fe3d
000001a0: 5062 413d 3a9c 17be f66f 3bbe 7677 9a3d
000001b0: 7b6d 2abd 92aa 073d 136c c73d 0ea6 ebbc
000001c0: 7653 143e 83ea 93bd ffdf f7bd 88e1 27be
000001d0: e681 3abe d419 a8bd 6c89 00be 34df 0cbe
000001e0: 0346 f83d ff83 c43c 892b 1bbe b9e9 fb3d
000001f0: 0f34 aebd 7121 913c ff8d 213d 2704 233e
00000200: 02da 38bd bb2f 12be 5d51 bdbd ebcc 81bd
00000210: 987b 343e b68a 4abd f0a5 87bd bf64 213c
00000220: 270d 363d 22c2 193b f1aa 933d 117b fcbd
00000230: 9389 fabd 3123 fa3d ec22 103d e720 30bb
00000240: f528 643d 57ae 8e3d 4abd ad3d 75c8 f6bc
00000250: 9ad8 a3bd da4f b2bc 47c4 9ebd f75e fb3d
00000260: 9690 d4bd 2ee3 11be cf82 573d 0df5 35bd
00000270: 570d 0ebd fd85 73bd 7104 033e e07e c7bd
00000280: 80ef b73c 3670 f43d 17d3 2cbd 540b 08be
00000290: 29d6 8ebd a99f 7fbd 87da cfbd c5e1 a0bb
000002a0: 5ce7 38bd bafe 80bd 137e c6bc be09 1a3d
000002b0: b37a ff3b d826 903d 3eb2 50bd 2248 77ba
000002c0: aed9 a4bd ec11 c23d 1589 09be e0b0 29be
000002d0: 2148 a8bc 221e 18bd ca57 123d b013 52be
000002e0: 3f38 933d 5376 ef3c f211 f63d 0b6e f23d
000002f0: a3e6 f63c 0a43 cf3c 11e2 fb3d 3c25 abbd
00000300: a3ea b33d 0bb3 fe3d 4ac3 ffbd 75bd e93d
00000310: b72c 82bd 2934 23be 6a93 863d ba5d b6bd
00000320: a6dd b43c 9171 49bd 30d4 a13d 122f 26be
00000330: 54a8 343d f90d f13d e3d2 a33d 2c4b b13d
00000340: f1a5 d53d 5591 52bd 57b9 873d cc08 be3b
00000350: 74c1 16bc 2e2b 1abe 1a68 d23d 7823 a13d
00000360: 89e0 e83d 8411 cf3d d9bd 1bbe 9f0c 92bd
00000370: 61ee 833c 9d26 d8bc c40c 27be f757 1abe
00000380: c59f 15bd 8b5f 03be 5687 393d 8a45 5f3d
00000390: 9595 653d d4c5 f9bd 6883 c03c 13f1 1cbe
000003a0: 2493 03bc a212 c0bb a555 923d 522c 73bd
000003b0: 26be f0bc ae07 e53d 6c00 fb3d 94c2 eebd
000003c0: 66f6 9fbc 32fd 8abd 9b34 9dbd 896c cb3d
000003d0: fb69 a6bd e033 a3bd 3e63 483d a4c7 edbc
000003e0: 4d13 913d 8c6d 993b 67e7 b7bd 93ed d8bc
000003f0: 1bc3 013b 0ba5 b03d f9ac a1bd 5bc1 c43d
0.071246535 -0.08179672 0.060098283 0.016669532 -0.17474572 0.03803974 -0.11783128 -0.07774244
0.14681494 -0.011477607 0.04395646 0.09751622 0.06476576 -0.010514895 -0.08406978 0.09016492
-0.08634029 0.050373364 -0.00020382233 0.1008636 -0.021433625 -0.018461999 0.02742746 0.09410018
-0.107845575 -0.025476791 -0.09323574 -0.04717121 -0.023627926 0.097500145 -0.1606563 -0.03908134
-0.06851907 0.012562635 0.09714297 -0.13259058 0.08806157 -0.052307166 -0.08780232 0.067903265
0.025274338 -0.032788426 0.030981235 0.1108466 -0.118281044 0.062830776 0.013468689 0.14441927
-0.008843635 -0.023719802 0.024629388 0.10314718 0.005293653 -0.015302235 0.090403706 -0.11316274
-0.04014019 0.098765224 -0.11741493 -0.13421962 -0.0042889277 0.0017088272 0.114575356 0.010352416
-0.039352395 0.056278747 -0.104153514 0.041072786 -0.12797475 0.04954422 -0.08513338 0.0020652257
0.050032936 0.06524957 0.04712733 -0.07544183 0.037726827 0.09168986 -0.0072207907 0.023416849
0.12250142 0.14718553 0.08248711 -0.0035139262 0.02870512 0.039028678 -0.095784284 0.077761404
0.12070265 0.071324766 0.0049062623 0.08142822 0.07153914 0.049475364 -0.10672482 -0.108585045
-0.100420006 -0.051808137 -0.036160123 -0.06358229 -0.1170716 0.10435146 -0.023924094 0.12417331
0.0472129 -0.1480569 -0.18304428 0.075423166 -0.041608315 0.033121653 0.097374104 -0.028765704
0.14484963 -0.07222464 -0.12103271 -0.16394627 -0.18213615 -0.08208051 -0.12552422 -0.1375702
0.12122729 0.023988722 -0.15153326 0.123004384 -0.08506023 0.017716141 0.03944206 0.15919553
-0.045129783 -0.1427602 -0.092440344 -0.06337913 0.17625272 -0.04944869 -0.06623447 0.00985068
0.044446137 0.002346166 0.07210339 -0.123281606 -0.122332714 0.122137435 0.035189554 -0.002687508
0.055703122 0.069668464 0.0848337 -0.030124882 -0.08000298 -0.021766592 -0.07752281 0.122739725
-0.1037914 -0.14246818 0.052614983 -0.04442315 -0.03468069 -0.059453953 0.12794663 -0.09740996
0.02245307 0.11935465 -0.0421935 -0.13285571 -0.069744416 -0.062408123 -0.10149103 -0.0049097263
-0.045142516 -0.06298585 -0.024230039 0.037606947 0.0077966093 0.07038659 -0.050951235 -0.0009433051
-0.080493316 0.094760746 -0.13431199 -0.16571379 -0.020542206 -0.037138112 0.035728253 -0.20515323
0.071884625 0.029231226 0.120151415 0.11837395 0.030139273 0.025300521 0.12298978 -0.08356711
0.08784988 0.124364935 -0.1248842 0.11413089 -0.06356185 -0.15937866 0.06571086 -0.08904596
0.022078346 -0.04918057 0.079018 -0.16228893 0.044105843 0.11770243 0.07999208 0.08656916
0.104320414 -0.05140813 0.06627148 0.0057993885 -0.009201396 -0.15055534 0.10273762 0.07868093
0.11370952 0.10110763 -0.1520914 -0.071313135 0.016104879 -0.0263856 -0.16313463 -0.15072618
-0.03652932 -0.12829416 0.045295082 0.054509677 0.056050856 -0.12195936 0.02350016 -0.15326338
-0.0080306865 -0.005861596 0.07145242 -0.05936844 -0.029387545 0.111831054 0.1225594 -0.116582066
-0.019526672 -0.067865744 -0.07676049 0.09932811 -0.08125683 -0.07968879 0.04892277 -0.02902586
0.070837595 0.0046822485 -0.08979683 -0.026480472 0.001980013 0.086252294 -0.0789432 0.09607192

layer2.bias f4 [25]
00000000: b6de 483d 0b15 8d3c 511a fabd c6db a43d
00000010: 5c8b c8bd 8d0e 10be c939 703d 5f97 ad3d
00000020: 0040 883c 1ab2 c93d ba05 d93b 92dd 51bd
00000030: a75a 093e 3b17 403d 9df8 fc3d dd33 57bd
00000040: 8d4f 003e 6fb3 83bd e94e 4e3c 0fd0 afbc
00000050: e87b 00be 5325 01be 865d f63b 6d7a eabd
00000060: 5f2d 44bc
0.04904052 0.017221948 -0.12212051 0.08049731 -0.09792206 -0.1406805 0.05864886 0.08476137
0.01663208 0.09848423 0.006622997 -0.051236697 0.13413487 0.046897154 0.12352107 -0.052539695
0.12530346 -0.064307086 0.012592056 -0.021461515 -0.12547266 -0.12611894 0.007518473 -0.11449132
-0.011973708

output.weight f4 [1, 25]
00000000: 8cc5 0cbd e8d1 3c3d 3937 f73d 8d68 463e
00000010: d471 903c 93c6 a53d b57d 313e f508 7ebb
00000020: 49e6 a73d 7f8c 223e bc5f 8abd a147 adbc
00000030: fb5c 29be c530 c43d e1b2 5d3e 38db 2dbe
00000040: 9037 3c3e 9831 2d3e e091 2e3e 949d eebd
00000050: 3b82 87bd 8c03 0ebd 0818 1e3e bf3b f0bd
00000060: b33a 1a3e
-0.034368083 0.04609862 0.1207108 0.1937582 0.017632402 0.08094516 0.1733311 -0.0038762663
0.0819822 0.15873908 -0.06756541 -0.02115232 -0.16539375 0.095796145 0.21650268 -0.16978157
0.1838057 0.1691345 0.17047834 -0.116511494 -0.06616636 -0.03467135 0.15438855 -0.11730146
0.15061454
