models/SimpleCNN_lt2.pth (torch, 253001 bytes, 10 tensors)

weight f4 [6, 3, 5, 5]
00000000: d773 82be 22e6 20be 056c f8bd 2e05 32be
00000010: 949e 75be 210b 5ebe eeae 13be ff53 88be
00000020: f8c4 ddbd c9f2 23be 94cd 98be cb9a 4fbe
00000030: 7649 83be a829 14be 4173 3dbe 6383 0abe
00000040: c9ef 59be db56 a1bd bed6 69be 9b47 08be
00000050: 7f90 023e 1485 243e 443e 1b3e aced c53d
00000060: ea01 543d 0ea5 b53d aea8 34bd 5636 d5bb
00000070: 9f2f 76bb b296 0cbd f088 103d c3bc d2bc
00000080: 65e4 983d e8c6 a63d b25f 5cbd 4026 49bd
00000090: 3121 b73c 1ed1 83bc ee9d b7bd 65aa 55bb
000000a0: 0227 bebb 43cf 3fbd c302 65bd 4211 e43c
000000b0: 2bee 08bc 9fe8 813c 7586 113b 8bec 3f3d
000000c0: fa7e 7ebc c2d2 30bd b8a4 103e 94c1 f33d
000000d0: 90a3 a73d e00a 3e3e 3ecd 963e 5809 2c3e
000000e0: 9bd4 693e 2e15 773e 60ca 7b3d 6019 703e
000000f0: a090 8a3e 05e9 7c3e 72b9 e13d 4d44 5f3d
00000100: e1d4 3cbd 4c32 c43d 33d1 d23d 8674 673e
00000110: f1bf 173d 6953 de3d 38dc 8e3d 6923 583e
00000120: b61d c73d d3ea 113e 31b1 803d e0d7 993e
00000130: f6f0 6e3e 44d7 6cb9 520d aa3b 01ee e33d
00000140: 8eb0 8d3d b696 f8bc fed7 01be 51a3 62be
00000150: 7b52 d63c 8adf d53c e415 1cbe 0aef a0be
00000160: cff1 94be 11b2 edbd a6f2 98bd ca03 c5bc
00000170: 7a3f 553d 9c1e e03d 934f 843d 9b63 b23d
00000180: 6285 023d 177d 4cbd bdba bf3c 4cc4 713c
00000190: 7840 ddbd dbbc 2bbe e974 31be 7262 8bbe
000001a0: 02fa fbbd 1d02 87be 029f b4be a8ed fabe
000001b0: 53f6 d9be f9a8 74be 6a2f afbd ae20 67be
000001c0: 3336 50be 538f 87be 602f 44be 048f 37bd
000001d0: 18ec 8e3d b510 003d da5e 40bd 8909 843d
000001e0: 234b abbc 6740 e43a 434e f33d 7989 2bbd
000001f0: 9f54 093e 33e1 543e 824c bdbc 916b debd
00000200: 6b23 40bd ee8c d73c 1f78 05bd f4fa 13be
00000210: bd9e 95bd 4f44 73be 685a 493d 8236 a33d
00000220: d14d b0bd dc2a 97bd 3e9f 99bd a9cd ef3d
00000230: 130d 613e cb2f 103e 0058 613e 87ec ad3d
00000240: 19a1 9a3e ca04 863e c368 883e 2a26 133e
00000250: f0ba 393e 1084 543e 1329 f4bd 902c 62be
00000260: f553 13bd e539 85bd d685 2fbe ec9d 3f3d
00000270: 458c cc3d a6da 293e 327d 213e 1092 3e3e
00000280: d94e 833d 7585 253e 1449 473e f0ad f13d
00000290: 2a22 e13c ebcf 29be a998 a3be a41b 9fbe
000002a0: de60 17be 6a34 d8bd 3bde b9bd d54a e8bd
000002b0: cde2 5fbe 0b62 69be 700f 97be 10a7 643d
000002c0: 3c2d 2bbe ab57 08be bf1b c5bd fe11 743d
000002d0: b18b 743e 5998 943e 0919 873e 3781 803d
000002e0: 21f5 7c3e 5fac 663e 5238 5d3e ffc4 a93e
000002f0: cbc4 713e 43c4 d53d 5ff8 1fbe 4841 5abe
00000300: 6588 66be 7a4b 21bd 6c61 09be ab13 0dbe
00000310: 9bc7 eebc ee3b 19be 0700 06be 3792 e1bc
00000320: a9f3 73bb a90e 64be 50ac 5cbd ab26 b8bd
00000330: 7f75 28be fa19 263e 0ee6 5b3e f532 3e3e
00000340: ba96 bb3d 1d93 823d 81df 6d3e 1a6d b33d
00000350: a965 5c3e 3da0 623e ed9d fd3d c11d 15be
00000360: b396 063d cf66 73bd 9893 aa3c b5e8 ebbc
00000370: f035 30bb 7a0e 83bd 6ef5 cabd 5616 8dbd
00000380: 13f1 d8bd 362f 95bd 618e 95bc d712 c93d
00000390: 34d2 bc3d e38d 923c 245e a4bd a4b3 cf3d
000003a0: 19e2 193e d8af 78bd 5d0c 2ebe be7b 23be
000003b0: e1eb 6c3d 365f 113e 8395 a73d 26c6 193d
000003c0: 9db2 78bc 1007 353d e905 8e3d 484e e9bd
000003d0: f007 21be d520 65bd 0048 663d 3373 993d
000003e0: faa6 f13d d055 2cbe bd7a 8bbc 887e 783c
000003f0: e189 cfbc e022 863d e005 b7bd 4a15 4abd
-0.25479004 -0.15712789 -0.12129978 -0.17384788 -0.23986274 -0.21683933 -0.14422199 -0.26626584
-0.108285844 -0.16010584 -0.29844344 -0.20273893 -0.25641984 -0.14469016 -0.18500997 -0.13526683
-0.21282877 -0.078778945 -0.22835824 -0.13308565 0.12750433 0.1606639 0.15160471 0.09664473
0.051759638 0.08869372 -0.044106178 -0.0065067215 -0.0037565005 -0.0343234 0.035286844 -0.025724774
0.07465438 0.08143407 -0.0538022 -0.049108744 0.022354694 -0.016090926 -0.089656696 -0.0032602784
-0.00580299 -0.04682852 -0.055910837 0.02784026 -0.008357565 0.015857993 0.0022205387 0.046856444
-0.015533203 -0.043169744 0.14125335 0.119021565 0.08185494 0.18558836 0.29453462 0.1680044
0.22835009 0.24129173 0.061472297 0.2344718 0.27063465 0.24698265 0.11021699 0.054508496
-0.046101455 0.09579906 0.10293808 0.22603044 0.037048284 0.10855753 0.06975597 0.21107258
0.09722464 0.14249735 0.062837966 0.30047512 0.23334107 -0.00022586907 0.005189576 0.1112938
0.06918441 -0.030345302 -0.1268005 -0.22132613 0.026162377 0.026107568 -0.15242726 -0.31432372
-0.29090735 -0.11606229 -0.074681565 -0.024049658 0.05206249 0.10943338 0.0646049 0.087104045
0.031865485 -0.049923982 0.023404473 0.0147562735 -0.10803312 -0.16771261 -0.17329754 -0.27223545
-0.123035446 -0.263688 -0.35277563 -0.49009442 -0.42570743 -0.23892583 -0.085539654 -0.2257106
-0.20333175 -0.26476535 -0.19158697 -0.044814125 0.06978625 0.031265933 -0.046965457 0.06447131
-0.020909851 0.0017414213 0.118801616 -0.04187915 0.13411187 0.20789032 -0.02310777 -0.108603604
-0.046908777 0.026312318 -0.03258526 -0.144512 -0.073056675 -0.23756526 0.049158484 0.07969381
-0.08608592 -0.07381222 -0.07501076 0.117091484 0.21977644 0.14080732 0.22006226 0.0849238
0.30201033 0.2617553 0.26642427 0.14370027 0.18137717 0.20753503 -0.11921897 -0.22087312
-0.03596874 -0.06505183 -0.17140898 0.046781465 0.09987692 0.16587314 0.15770414 0.18610406
0.06411523 0.16164191 0.19461471 0.11800754 0.027482111 -0.1658322 -0.31952408 -0.31075776
-0.14783046 -0.10556872 -0.0907559 -0.11342398 -0.21863861 -0.22791307 -0.29503965 0.055823386
-0.16716474 -0.13314693 -0.09624433 0.05958747 0.23881413 0.29022482 0.26386288 0.06274646
0.24702884 0.22526692 0.21603516 0.3315811 0.23610227 0.104378246 -0.1562209 -0.21313965
-0.22512968 -0.03937862 -0.1341607 -0.13777034 -0.029147914 -0.14964268 -0.13085948 -0.027535541
-0.003722409 -0.22271217 -0.053875268 -0.0899175 -0.16451071 0.16220847 0.21474478 0.18574126
0.09159608 0.06375716 0.23229791 0.08761044 0.21523155 0.22131439 0.123836376 -0.14562131
0.03285856 -0.059424218 0.020822331 -0.028797487 -0.0026887618 -0.063992456 -0.09910093 -0.06889026
-0.10592856 -0.072843954 -0.018256368 0.098180465 0.092197806 0.017889922 -0.080257684 0.101416856
0.15027656 -0.060714573 -0.16996904 -0.15965173 0.05784214 0.14196476 0.08182814 0.037542485
-0.0151793035 0.04419619 0.06934721 -0.11391884 -0.15725684 -0.055939514 0.05622101 0.07492676
0.117994264 -0.1682961 -0.0170263 0.015166886 -0.0253343 0.06549621 -0.089366674 -0.04933671

bias f4 [6]
00000000: eb3a ea3e 5bba 9fbe 4a26 85be c7d1 113e
00000010: 9da7 c0be eb9e b53e
0.45748076 -0.31196865 -0.26005775 0.1424018 -0.3762788 0.35472807

weight f4 [16, 6, 5, 5]
00000000: c888 343d 4429 19bc e953 253c 3d07 193d
00000010: b652 573d cfb1 09ba 7ceb 4dbd b3f8 d3bd
00000020: dcf1 3c3c 7dc2 b43b bfad aebd bf47 bfbc
00000030: e525 29be c0ba 93bd 0041 05be 5892 2cbd
00000040: 08e8 7e3d dbaa abbc e5e4 c7bc 2522 573d
00000050: aa41 533d 9fd6 553c 3364 fa3d 91dd e13d
00000060: 178a 5f3d c117 f03d 076d 293e 9877 313e
00000070: 938d 3a3e c28a 3d3e 2079 08be dc77 b0bd
00000080: 23c7 e3bd 3642 0ebe cb4e b0bd 206f 86bc
00000090: 98ae 64bd 2926 22bd 6378 3abd e8be 8abd
000000a0: ff3e 9f3c f47c a139 f2f7 b3bc b102 7b3d
000000b0: 534b 0d3d 759e c6bc d843 3a3b 16dc 6c3d
000000c0: e59a f8bb e34c 953d 6427 3ebd e0e3 82bd
000000d0: 7c22 dbbd 554f 10bd 49fd 42bc 2bf2 d1bb
000000e0: a970 453d 3bd5 253e 1203 053e 04f3 be3d
000000f0: 1c0e 473e e02c 423d cc2e 363e 0962 4e3e
00000100: 69a2 ea3d be9c cf3d 7611 f83d 087b 853d
00000110: 977b 8f3d 4d30 963d 3f68 4a3d 6679 a93d
00000120: b4e9 01bd 1b4a d03c 527d 56bd 2856 823d
00000130: ca15 023c 1240 64bc 25c5 0d3d 31ae 6a3d
00000140: 526b fc3c a452 813d a593 7f3d 534a cc3d
00000150: f5b9 3f3d aec1 a23d da0b bd3d 9e31 adba
00000160: 0745 503d 0e99 a9bb dc7f 75bd 9790 363d
00000170: 1e9b fbbc 4f1e ebbd 5c64 e9bc 50dc c2bd
00000180: 17c0 22bd 89a4 14be e571 18bd 1f9c 1fbe
00000190: 44d9 0bbd 9202 87bc 0caa 97bd bdac 2f3d
000001a0: 78f9 72bd 8d52 93bb 30b2 403d ffed 9d3d
000001b0: 4273 463c c0b9 c03b 238d 8fbc e42e 553c
000001c0: 8e76 ca3d 7cf3 213d c47c 213e 3bdd 0b3e
000001d0: 962e 713d b55a 7a3c 953e c33d 263c 973b
000001e0: e30a 183c 6395 c23d 6ddb 95bc 17a7 31bd
000001f0: 5f5e ed3c 7819 2bbc 2285 9ebd afda 1a3c
00000200: d775 c4bd f951 24bc fd2f 7abd 190a 25be
00000210: aa52 27be 9a5a 84bd acbd 10bd 6307 183a
00000220: 8f82 07be 28e7 c8bd 22ec 56bd f498 a4bd
00000230: a3b1 cb3c 6086 833c 8379 cbbd caab e0bd
00000240: 92c9 23bd 5bb0 a4bc 5748 ffbb ea2d 073c
00000250: 074c d23c 0cd1 0fbd 2a50 a53d a3e3 063d
00000260: eb51 e73c d14b 7dbd 8ba3 39bd 1977 b33c
00000270: f0d8 953d 5cdb ab3d f6cd 9cbd 88e2 06be
00000280: 17a1 043d 37b2 0b3e 91a8 c9bc f6bd f23b
00000290: d405 16be 60db ce3d 5c50 34bd 06fd 123d
000002a0: 519c f9bd 176b bbbd 0243 573d c73e 693c
000002b0: 3e77 823b 8d1c 733a c9f8 a9bd 076a 153e
000002c0: edb3 5b3d 08f7 bbbb ef58 b63c 2a97 913c
000002d0: 62a6 053e 0f11 06be 8fd9 68bd 0a51 083e
000002e0: 5007 603d 4306 683c e0e0 983d 3484 d53c
000002f0: af79 2b3e 927a dc3d 7d5a 463d 17c0 123e
00000300: 0e7d 503d 61b3 6e3d 25e8 8e3d be19 f8ba
00000310: 743b 213e fbf7 a93d 984d ab3d a6f2 893d
00000320: c0f2 6dbd 69ef 453d 0b01 65bd eb0f 8fbc
00000330: 327c 4abd 60cd b4bd f899 d33c d085 a53c
00000340: 0f1d c6bd afd5 ecbd ad48 d2bd d808 323c
00000350: 5d63 83bd 9e84 1ebd 0373 2abe 73d9 0fbd
00000360: 7175 9fbd 3eac 99bc 2afd f7bd 71f4 9dbd
00000370: 9387 80bd f930 15be 1bbf 0bbd 951a c9bd
00000380: d4aa eabd 6572 df3c f35c 883d 6421 a5bd
00000390: 0ba7 4fbd 2d16 3bbe c9a8 ebbb 68a7 a73d
000003a0: 79f0 82bc 7a2a 0dbe 81c6 48be 6c12 86bc
000003b0: 4d4e d03d 7dca 84bd aa14 8cbd 2874 14be
000003c0: 6505 d33d 2ccf 5dbc 4bc3 c83d c504 ecbd
000003d0: 70be d8bd 7b68 3b3e eca1 003e a40e a8bb
000003e0: d782 4b3d f749 6ebd 95f5 953d 8bf4 f23d
000003f0: c509 953d 1c7a de3d eb92 cf3d c00c 87bc
0.044075757 -0.009348217 0.0100908065 0.03736042 0.052569114 -0.0005252631 -0.050273404 -0.1035017
0.011532273 0.005516349 -0.08529233 -0.02334964 -0.16518362 -0.07213354 -0.13013077 -0.04213175
0.062233 -0.020955494 -0.024401138 0.052522797 0.051576294 0.013051658 0.12226143 0.110285886
0.054575052 0.11723281 0.16545497 0.17330778 0.18218069 0.18509963 -0.13327456 -0.08616611
-0.11121967 -0.13892445 -0.086087786 -0.01641041 -0.055830568 -0.039587174 -0.045524966 -0.06774694
0.019439219 0.0003080141 -0.021968815 0.061281864 0.034495663 -0.02424548 0.0028421786 0.057827078
-0.0075868242 0.072900556 -0.046424285 -0.0639112 -0.10699937 -0.035231907 -0.011901208 -0.0064070425
0.048203144 0.16194622 0.12989452 0.09323695 0.19438976 0.047406077 0.17791289 0.20154585
0.114567585 0.10137318 0.121127054 0.06517607 0.07005995 0.073334314 0.049415823 0.08275108
-0.031717017 0.025425961 -0.05236561 0.06364089 0.007939765 -0.013931291 0.03461184 0.057295028
0.030812893 0.063145906 0.062396664 0.09975114 0.0468082 0.07947098 0.09230776 -0.001321364
0.05084708 -0.0051757162 -0.05993639 0.044571485 -0.030713614 -0.1148039 -0.028490238 -0.095146775
-0.039733972 -0.1451589 -0.037217993 -0.15586899 -0.034142748 -0.016480718 -0.07405481 0.042889345
-0.059319943 -0.004495925 0.047044933 0.0771141 0.012112441 0.005881518 -0.017523354 0.013011668
0.09885894 0.039538845 0.1577025 0.13658611 0.05888232 0.015280415 0.09533421 0.0046153245
0.009279939 0.095011495 -0.018293107 -0.04337224 0.028975664 -0.010443084 -0.07740237 0.009451552
-0.09592789 -0.010029309 -0.06108092 -0.16117133 -0.16340128 -0.064625934 -0.035337135 0.00057994406
-0.13233398 -0.098097146 -0.052471288 -0.08036986 0.024864977 0.016055286 -0.09935286 -0.10970266
-0.039987154 -0.020103624 -0.007790606 0.008250693 0.025671018 -0.035111472 0.08071931 0.032931935
0.028237304 -0.061839882 -0.045321982 0.021907376 0.07316768 0.08391449 -0.076564714 -0.13172352
0.03238019 0.13642202 -0.024616512 0.007407899 -0.14650661 0.10100436 -0.04402195 0.035885833
-0.12188018 -0.09151285 0.052554138 0.014236159 0.0039815 0.0009273969 -0.08299405 0.14591227
0.053638387 -0.0057362355 0.022259204 0.017772276 0.13051751 -0.13092445 -0.056848105 0.13312164
0.054694474 0.014161649 0.074647665 0.026064016 0.16745637 0.10765566 0.04842614 0.14331089
0.05090051 0.058276538 0.06977872 -0.001892857 0.15745336 0.08299252 0.08364409 0.06735735
-0.058092833 0.048324022 -0.055909198 -0.017463645 -0.049434848 -0.08828235 0.025830254 0.020205408
-0.09673511 -0.115641944 -0.10267768 0.010866366 -0.064154364 -0.038700692 -0.16645436 -0.035119485
-0.07786072 -0.01875889 -0.12108834 -0.07712639 -0.06275859 -0.14569463 -0.0341178 -0.09819523
-0.11458364 0.027276227 0.06658354 -0.080630094 -0.050696414 -0.18270178 -0.0071917516 0.08186227
-0.015983807 -0.13785735 -0.19606973 -0.016366206 0.10171185 -0.06483934 -0.06839879 -0.14497435
0.10303763 -0.013538163 0.09802874 -0.11524347 -0.10583198 0.18301575 0.12561768 -0.0051286984
0.049685325 -0.058176007 0.07322232 0.11863049 0.07277254 0.10863134 0.10135444 -0.016485572

bias f4 [16]
00000000: 444a ce3c 7f9d b4bc 903d 133f 5789 d4bd
00000010: 6266 edbd 2443 80ba d5f7 debd bb16 95bd
00000020: 92f4 603e 8927 04be 9093 c23e ee61 96bc
00000030: 0c9d 97be 7818 cdbc a645 bb3d 8a7e 833e
0.025181897 -0.022047756 0.5751581 -0.10377758 -0.115917936 -0.0009785634 -0.10887114 -0.07279726
0.21968296 -0.12905706 0.38003206 -0.018357243 -0.29612005 -0.025036082 0.09144144 0.2568248

weight f4 [120, 400]
00000000: 6c50 1bbd 4902 953b e086 60bd 7924 17bd
00000010: f9df e6bc 4af5 7fbd dd65 71bc 74c1 6f3c
00000020: 56a1 0a3c ae3d 16bd fc5b 37bd 66ca 1dbb
00000030: c81a 2bbc 89b8 bd3b 5b0c 6cbd ac32 27bd
00000040: 3525 d73c 1b57 0d3d 3ea1 ccbc 3d8e f93c
00000050: 9c02 a6bb 240c e1bc 1101 1d3c 9a58 cc3c
00000060: 51e4 493d c384 57bd 89b3 473c 63e8 dbbc
00000070: ecc3 d33c e5cf 2bbd 8702 23bd af65 243d
00000080: 72ec 07bc e2bd 023c e2e6 58bd 5169 3ebd
00000090: 8a01 e3bc 7ba3 033c c57a 1bbd b7ff b43c
000000a0: d5e4 33bd b37d 073d a4e6 a0bc 84ad 4e3d
000000b0: 6690 41bd 4102 f0bc 587c 0cbd 8f5b a33c
000000c0: 6b39 db3c 95ab 033c e97b 16bc 42ae abbb
000000d0: 9bf5 37bb b616 14bc b7b2 3b3c 499f 5b3d
000000e0: e1a9 8b3d 39b8 193b c072 cdbc 5218 a8bc
000000f0: 8576 123c 2d74 c23c ee90 8abb dd53 1bbc
00000100: 6c29 213d 54dd 383d 68e3 e43c 39fa 863c
00000110: 9c2b 03bd 9721 cf3c 9dcb 213c 1e23 f13c
00000120: fdac 3dbd 7eb7 eabc 1c11 96b8 1cb7 87bc
00000130: a6ff fabb 86fd bfbc 6558 0a3d 7d50 083d
00000140: d9e6 1fbd 20d1 8dbd 8eeb de3c 0069 cabb
00000150: 9316 eb3b c7ed 813c f828 76bd da22 7bbc
00000160: 442b 23bd 412f b5bc 5632 243b bb39 08bc
00000170: ba04 0bbd cff4 bebb 8e89 2ebd 5011 103d
00000180: e83b e1bb d83a d2bc 8d6d abbc 5a4e 033d
00000190: c6d4 06bd 28ac 7ebc c0e7 78bc 6315 c5bc
000001a0: 95d5 38bd 2fa1 06bd 8cc4 9d3a 9b5d 78bd
000001b0: 6ab8 44bd 724b 303c 0a4b 2dbd f6f4 103d
000001c0: f4dd 8cbc 155a 34bd 0b46 83bd d85f 9a3c
000001d0: 1ba8 07bd 89fb d0bc 120b fabc b53c 57bb
000001e0: 8c78 afbb 7366 aa38 ed1b c63c 7115 0c3d
000001f0: 6c84 f23c e40b 03bd 251c 9c3c 2bd7 78bc
00000200: 7fa3 0ebd f8e7 23ba d9e2 fbbc 39c2 f23c
00000210: 8535 eaba 6b6a 083d f5d8 40bd 3a66 233d
00000220: c892 38bc 8a61 33bd bb43 d63c 556a 18bd
00000230: eb42 69bc d200 983c 7210 a73c ac24 d9bc
00000240: 80b4 b6bc b96d 513d 2d5a 693c ce29 db3c
00000250: 7ab7 c9bb c279 d43c 061a 663c e623 d23c
00000260: 3f8d 0abb 8946 d33c 891f 30bd f20b a2bb
00000270: 25d3 503b 53b7 b4bb c32f 813c 6ca6 113d
00000280: 782e 63bd 1b49 dcbc 8b80 523c b0c6 a3bb
00000290: 2dbb ebbc 3fbf cd3c 5952 04bd 92b6 52bd
000002a0: 6f2b 823c 6ed4 9f3c 5d7f 373d aa16 f13c
000002b0: 2b59 2b3d ee35 69bc 5d10 433c 73c1 16bd
000002c0: c588 433d eba7 a5bb 31af ba3c 79f7 fe3c
000002d0: 752a a33c 6132 b1bc 1dff 21bc caf7 b4bb
000002e0: ba34 1b3c 40d1 c9bb 660c 193d 276c 533d
000002f0: 0220 c03c a678 fdbc d9fa 6e3c 33ca 113d
00000300: 0d90 de3c 53ff 21bd 6cd6 22bd b828 873d
00000310: 2d29 2a3d c582 453d 30ef 42bc 35b8 d7bc
00000320: d68b e13c fc96 ec3c a88c bbbc 0b6d 1ebc
00000330: 158d b5bb 3a7b ec3a 9458 283b 8662 353d
00000340: faf3 bc3b e039 6c3d b538 e5bc 221b b63c
00000350: 68c8 843c bb53 e93c 032c 603d 346c 1b3d
00000360: 1171 733d b406 063b b562 b9bb 7859 103d
00000370: 62b5 b33c d913 5bbd d94e 653c 0274 733c
00000380: df20 1abc 49ce f0ba f92e e2bc 6045 6aba
00000390: 8e69 00bc 11cf 43bd 0e43 cfbb 6b6c 973c
000003a0: d0f0 313c 7691 453d 923d 803c 033a bfbc
000003b0: a43d cdbc a781 843b ae5c 843c 2bde 0b3c
000003c0: 4761 a63c 09a1 27bd 1626 c8bc e435 473d
000003d0: 20fe 103d 6630 2d3d 4d88 0abc db33 49bd
000003e0: 8363 e6bb bc86 37bd 95f4 133d 265e 283d
000003f0: 0e0a 063d 7660 4cbc fcf7 20bc 0f17 7f3b
-0.037918493 0.0045473916 -0.054816127 -0.036900017 -0.02818297 -0.062489785 -0.014733759 0.014633525
0.008461317 -0.036679916 -0.044765458 -0.0024076938 -0.010443397 0.0057898206 -0.05762897 -0.04081981
0.026262859 0.0345069 -0.02497923 0.030463332 -0.005066229 -0.02747161 0.009582774 0.024944592
0.049290005 -0.052616846 0.012188801 -0.026844209 0.025850259 -0.04194631 -0.039797332 0.040136036
-0.008296119 0.007979842 -0.052954562 -0.046487156 -0.027710695 0.008034582 -0.03795888 0.02209459
-0.043919403 0.03307886 -0.019641228 0.050458446 -0.04725685 -0.02929795 -0.03429827 0.01994112
0.026760777 0.008036514 -0.009184816 -0.005239279 -0.0028069976 -0.009038618 0.011456183 0.053618703
0.06819511 0.0023455753 -0.025079131 -0.02051941 0.00893939 0.023737038 -0.0042287027 -0.009480444
0.039346144 0.04513295 0.027940467 0.016476737 -0.03202401 0.025284572 0.009875205 0.02943569
-0.046307553 -0.028651949 -7.155744e-05 -0.016566806 -0.00765987 -0.02343632 0.033775706 0.033279885
-0.039038513 -0.06924653 0.02721193 -0.0061770678 0.007174322 0.015860451 -0.060097665 -0.0153281335
-0.039836183 -0.022117259 0.0025054417 -0.008314545 -0.033940054 -0.0058275233 -0.04261165 0.03517276
-0.0068735965 -0.025662825 -0.020926261 0.032057144 -0.03291776 -0.015543975 -0.015191972 -0.02405805
-0.045125563 -0.03286856 0.0012036725 -0.060636144 -0.048027433 0.010760175 -0.04230789 0.035389863
-0.01719568 -0.04403122 -0.06409844 0.01884453 -0.033119302 -0.025510566 -0.030522857 -0.003284258
-0.0053549465 8.125314e-05 0.024183238 0.034200136 0.02960416 -0.03199376 0.01905639 -0.015188019
-0.03482389 -0.00062525226 -0.030747818 0.029633628 -0.0017868733 0.033304613 -0.047081906 0.039892413
-0.011265464 -0.043794192 0.026155343 -0.03721078 -0.014237146 0.018555079 0.020393584 -0.026506744
-0.022302866 0.05113003 0.014242691 0.026753332 -0.0061559053 0.025936965 0.01404429 0.025651883
-0.0021141318 0.02579047 -0.042998824 -0.0049452716 0.0031864133 -0.005515018 0.015769845 0.035559103
-0.055464238 -0.026890328 0.01284803 -0.0049980506 -0.028775776 0.025115607 -0.032305095 -0.051443644
0.015889851 0.019510474 0.044799197 0.029429752 0.041833084 -0.014234049 0.011905757 -0.03680558
0.047737855 -0.005055418 0.022788616 0.031123864 0.019917706 -0.021630468 -0.009887484 -0.005522703
0.00947302 -0.0061589777 0.03736534 0.051616814 0.023452763 -0.030941319 0.014586174 0.035593223
0.027168298 -0.039550137 -0.03975527 0.06599563 0.041543175 0.048220415 -0.011897847 -0.026332954
0.0275325 0.028880589 -0.022894219 -0.009669553 -0.0055405 0.0018042095 0.0025687562 0.044283412
0.005766389 0.05767238 -0.027981142 0.022229735 0.016208842 0.028482309 0.054729473 0.037944987
0.059434 0.0020450773 -0.0056575187 0.035241574 0.021937076 -0.053485725 0.0139958495 0.014859201
-0.009407251 -0.0018372025 -0.027610289 -0.0008936729 -0.007837666 -0.047804896 -0.006325132 0.018484315
0.010860637 0.048234425 0.015654359 -0.023343092 -0.025053807 0.004043776 0.016157474 0.008536856
0.020310057 -0.04092506 -0.024432223 0.04863538 0.035398602 0.042282484 -0.008455348 -0.04912172
-0.0070309057 -0.044806227 0.036121923 0.041105412 0.032724433 -0.01247417 -0.009824749 0.0038923656

bias f4 [120]
00000000: bebb 7f3c 829a bb3c d1ee 21bd 03d3 ffbc
00000010: 44c8 92bd 6595 3bbd a2b0 54ba f451 c3bc
00000020: 66e8 d33c 7efe 2ebd f227 363d 9447 06bc
00000030: 6865 08be c81f 923d 9128 55bd af65 a03d
00000040: c525 483e 6423 eb3c 8934 16bd 886e ff3b
00000050: 285d cb3d ec1b 0e3d 0b98 a23d 66d8 47bd
00000060: 2e48 a7bd 00b4 8cbc 30ac b8bc 1792 ab3d
00000070: 6b0c 393d 142f 4c3d 1fed 4dbc 48a6 cb3d
00000080: 5df3 273d 4b57 7e3d 21d8 b33d 1cbe 1f3d
00000090: 9587 9b3d 2ba6 31bd 753d 313c 34fb 30bd
000000a0: 96ea 9e3d 2422 c03d a12f e33c 066f fabc
000000b0: 3573 223d 0b78 f8bc 59dc 023d 1350 2dbd
000000c0: 40b5 9a3d 369f 5fbd 596f 813d 8f4f be3b
000000d0: 65a4 1e3b d343 cbba 8c77 ab3d ba93 583c
000000e0: 8f2c 213e 29ac 2dbd 3826 e6ba 2ce0 d2bc
000000f0: e1a1 b1bb 836a 893c 2316 a7bb bd3f 813c
00000100: 66e7 9d3d 8469 33bd a5a9 b7ba e6b0 3c3c
00000110: 7c44 7a3d 1826 593d e007 5e3c f893 5ebd
00000120: 1e94 4a3d b6c1 b03d c03e 7c3b a0ee 5a3c
00000130: afe3 ed3d c306 4bbd eae4 7c3c 9f24 9a3c
00000140: a3f3 9a3c e49e c9bc 1cc7 973c cf53 9abc
00000150: 5e63 babd 34e1 59bc d2d3 03bd 78b7 073c
00000160: e1fb 373d b110 023e 205a 3f3c c3c0 79bd
00000170: e393 dfbc 1fde f6bc e334 47bc dce3 4a3d
00000180: f75d 14bc 5f26 023e 2880 5f3d 4969 1abb
00000190: 97af d13c 5fe4 3e3d 597e 413d c965 a53d
000001a0: 0d88 bf3d 7749 0bbd 8689 bebc 54bc 003c
000001b0: a373 613b a2e0 9bbd 5e7e 103d e506 27bd
000001c0: c7b3 cdbc 834e 163d 85f7 903d 80cb d63c
000001d0: 9e7c 40bc b22b 4b3d 9b78 0abc 5bdf abbc
0.015608726 0.022900824 -0.039534394 -0.031228548 -0.07167104 -0.04579677 -0.00081134785 -0.02384279
0.025867652 -0.04272317 0.04447169 -0.0081957765 -0.13319933 0.07134968 -0.05204064 0.078318946
0.19545658 0.028703399 -0.036671195 0.007795159 0.099298775 0.034694597 0.07939156 -0.048790358
-0.08168064 -0.017175674 -0.022543043 0.08377474 0.04517786 0.049849585 -0.012568741 0.09943825
0.041003574 0.062094968 0.08781458 0.03899966 0.075942196 -0.04337136 0.010817875 -0.043208316
0.077595875 0.09381512 0.027732672 -0.030570518 0.03966065 -0.030330678 0.03194842 -0.042312693
0.07554102 -0.054595195 0.06320066 0.005807824 0.0024206873 -0.0015507884 0.08372411 0.0132188145
0.15739654 -0.042400513 -0.0017558997 -0.02574166 -0.005420909 0.016774422 -0.0050990744 0.015777463
0.077101514 -0.0438018 -0.001401235 0.011516785 0.061100468 0.053014845 0.013551682 -0.054340333
0.04945766 0.086306974 0.003848955 0.013362557 0.11615693 -0.049566995 0.015435437 0.01881629
0.018915003 -0.024611898 0.01852756 -0.018838791 -0.09100984 -0.0132983215 -0.03218443 0.008283488
0.044917945 0.1270168 0.011679202 -0.060974848 -0.027292198 -0.030135212 -0.012158605 0.04953371
-0.009055606 0.1270995 0.05456558 -0.002356129 0.025596423 0.04660451 0.047239635 0.080760546
0.093521215 -0.03400561 -0.023258936 0.007857401 0.00344012 -0.07611205 0.035276763 -0.04077806
-0.025110139 0.03669597 0.070784606 0.026220083 -0.011748461 0.049602218 -0.008451606 -0.020980528

weight f4 [84, 120]
00000000: 320c 91bb 7ad1 b1bd abd1 9cbd b63d a6bd
00000010: 9ba9 b5bd 15b4 47bd e762 04bd 6bec 9abd
00000020: 9573 89bd a483 44bd 9e05 963b 79e7 4ebd
00000030: 7054 5cbd b67d 2bbb 736d 493c ae71 2a3d
00000040: 51c3 89bd e64a ad3d 8d93 8e3d b88c 763d
00000050: a3ba 1a3d e9e8 ccbc 1314 d03b 2520 a5bd
00000060: 0c12 80bd 7467 dcbc 14e1 0ebd 3993 9fbd
00000070: bd86 58bb 2cf6 1abd be3f 42bc 50c7 aabc
00000080: 441a 3c3d c9c3 71bd b156 743d c6f4 cdbb
00000090: 03d9 963c 5232 56bd e20f a93d 79b3 7d3d
000000a0: 8a5b c63c a200 6cbc 010a 8ebd 87ea 2cbd
000000b0: 415d 9fbb 73dc b739 30b0 aebd ddc9 8bba
000000c0: 5bbf 42bb 4655 003d 26c8 b93d bfae 6dbd
000000d0: 46bf d03c eb95 a5bc 63a1 003c 5fe7 8ebd
000000e0: b102 e73c a667 2fbc 0ef9 48bd 3ebf 5a3d
000000f0: 5695 953d 6364 e83c ea2d b6ba 8b5f 843c
00000100: db44 28bd d8c3 68bd cc08 b03d b7de 83bd
00000110: ae8f 40bd 9285 983d e37b df3c 03b7 79bd
00000120: 155a b8bd ed8b c9bc 72aa a0bd f7d1 f53c
00000130: 1375 4d3d 1e2a 8bbc 4ddc 5b3d c57c 53bc
00000140: 0f22 e33c 7293 c1bc 5c8c 2bbd aedd 08bc
00000150: f257 e6bb 76eb 773c 72cd b7bd 8d46 703d
00000160: fc85 323b 83e8 83bd deca b73d 5c8d b73c
00000170: 3ed5 01bd 4ef1 733c 62d8 6fbd 43b3 0dbc
00000180: 1871 0dbd 050f 86bc 8dbd 0f3c 2a24 07bb
00000190: 9535 7e3d 848d 93bb bcf0 08bd c075 27bc
000001a0: 8beb 663d caa7 b3bd 2b3f e63c 9f0c 393d
000001b0: df26 273d 8637 aabb 7430 863c 721f 6abd
000001c0: bfda 8cbd bc72 0e3c 7010 303d ff1b 72bd
000001d0: 52d5 1b3d 8986 5fbd 3e7c b4bc 9e14 683d
000001e0: 33be 61bd 9127 b6bd 9138 63bd d9f2 b33c
000001f0: b4b0 ff3c e69a 663d 0e9e b13d ba32 a33d
00000200: 2254 50bc deec 753d 83d5 3dbd ad7f 88bd
00000210: 751a bc3d b5cb e43d 4612 b03d e414 dd3d
00000220: 68ab b3bd 290f 853d 38d0 c4bc 4e4c b9bd
00000230: 4711 0d3d 7620 1f3d 2325 1dbd 8672 553c
00000240: e44d d63d d963 b1bd c5db 8bbd a0cb 973d
00000250: 68e5 b1bd b50f c63d 6d24 60bd c2ae 8c3d
00000260: 160c a63c 4b71 afbd 2082 a9bd 1a55 293c
00000270: c3d4 e4bd 494d 393d 5b68 893d 50f7 cf3c
00000280: b91c 06bd f5e2 d73d e6d7 a73b 5d39 65bd
00000290: d6ad dcbd 2ce1 8f3d 1968 04bd ddce 80bd
000002a0: 7325 88bd a12a 573d f30e 98bc fb8f c9bd
000002b0: 704a 743c d10c 463c 35f4 02bb 86c3 7e3d
000002c0: c7de 043c 8923 8abd 237f 393d 4c72 6a3d
000002d0: 84d0 003d 291c 833d b8c1 debc 2090 80bd
000002e0: 9cf9 4dbd 6b2c 383c f680 56bd 946f b93d
000002f0: c5fe 44bd 85fd edbc 5b11 813b e24d d63d
00000300: 666d 03bd 687b 40bd e9f6 88bd 07d2 33bd
00000310: 4396 52bc 31b2 52bb 8e2e d5bc 951d 6a3c
00000320: 57a3 263c 902d 123d 18af cdbd 88ce bebd
00000330: d6bc 9a3d 1396 e83c 5fc0 56bd d479 40bd
00000340: 5be7 aebb 142b 85bc 6650 403d 6610 0dbd
00000350: 1f24 a5bd d2cb 80bc 59d2 373d 61df cb3c
00000360: b6db 99bd 18df 45bc aca4 0a3d a659 2ebb
00000370: 4df3 263d ba4d eebc 7612 fd3d 5aa4 fabc
00000380: 47a9 d7bd 1571 86bd f29f c2bd 5639 1abc
00000390: 6fbf 61bd 1642 e03b 19af b33c 6894 b93d
000003a0: d9cc 923b 576e 043c 1f41 a0bc bfcf 7bbd
000003b0: 5ea0 8ebd 7581 f33c 8295 693d 33af da3c
000003c0: 3d13 a3bd 81a7 5a3d 3780 843d cfe4 963d
000003d0: 9306 87bd 4760 d9bc 38a3 88ba c9d4 ae3c
000003e0: 0802 6cbd 0ff1 1b3d 3aad 84bd 3f7c 4bbd
000003f0: 5aa6 10bc da57 b9bd 647a bc3d 38fd 8dbc
-0.0044265026 -0.086825326 -0.076571785 -0.08117239 -0.0887024 -0.048755724 -0.032320883 -0.075646244
-0.06711499 -0.047977105 0.0045783063 -0.05051372 -0.053791463 -0.002616746 0.012294161 0.04161232
-0.06726707 0.08461551 0.06961737 0.060192794 0.037775647 -0.025013404 0.0063500493 -0.08062772
-0.06253442 -0.026904799 -0.03488262 -0.07791752 -0.0033039295 -0.037832424 -0.011856018 -0.020846993
0.045923486 -0.059024606 0.059652988 -0.006285283 0.018414026 -0.052294083 0.082549825 0.061938737
0.024213571 -0.014404448 -0.06935502 -0.04221585 -0.0048634117 0.00035068727 -0.08529699 -0.0010665018
-0.0029716108 0.031331323 0.090713784 -0.05802798 0.025481831 -0.020213088 0.007850978 -0.06977724
0.028199526 -0.010705864 -0.049065642 0.05340504 0.07303874 0.02836818 -0.0013899182 0.01615884
-0.04108129 -0.056827396 0.08595428 -0.06438964 -0.047012024 0.074473515 0.027280753 -0.06096555
-0.09001557 -0.024602855 -0.0784501 0.030007346 0.05016048 -0.016987856 0.053676892 -0.012908165
0.027726201 -0.023629878 -0.041881904 -0.008353634 -0.007029527 0.015131822 -0.089747325 0.058661032
0.0027240505 -0.064408325 0.08974241 0.022406273 -0.031697504 0.0148890745 -0.058555968 -0.008648696
-0.034531683 -0.016364584 0.00877322 -0.002062092 0.06206282 -0.004502954 -0.033432707 -0.010220945
0.056376975 -0.087722376 0.028106293 0.045178052 0.040808555 -0.005194607 0.016380526 -0.057158895
-0.0687766 0.008694347 0.042984426 -0.05910873 0.038045235 -0.054571662 -0.0220319 0.056660287
-0.05511303 -0.088942654 -0.055473868 0.021966385 0.031212188 0.056300066 0.08672725 0.0796866
-0.012715371 0.060040347 -0.0463462 -0.06664977 0.09184734 0.111716665 0.085972354 0.10795
-0.087729275 0.06497032 -0.024025068 -0.09047757 0.034440305 0.038849317 -0.038365494 0.013027793
0.10464075 -0.086616226 -0.06829027 0.07411885 -0.08686334 0.09670965 -0.05472224 0.0686927
0.020269435 -0.08566531 -0.082767725 0.010335231 -0.111733936 0.04523972 0.06709357 0.025386482
-0.032742236 0.105413355 0.0051221726 -0.05596291 -0.10775344 0.0702537 -0.032325838 -0.06289456
-0.06647768 0.05253089 -0.018561816 -0.09841915 0.014910325 0.012088017 -0.0019981985 0.062198184
0.008109755 -0.06745059 0.045287263 0.05723791 0.031448856 0.064018555 -0.027191982 -0.0627749
-0.050286874 0.011241059 -0.05236908 0.09054485 -0.04809453 -0.029051552 0.0039388365 0.10464074
-0.032086752 -0.04699269 -0.066877194 -0.04390147 -0.012853208 -0.0032149667 -0.026023176 0.0142892795
0.010170779 0.035687983 -0.10043162 -0.093167365 0.07555549 0.028391873 -0.052429553 -0.046991184
-0.0053376383 -0.016255893 0.046951674 -0.034439467 -0.0806353 -0.01572219 0.044878338 0.024886789
-0.0751261 -0.0120771155 0.03384845 -0.0026603728 0.040759373 -0.029089797 0.12357037 -0.030595947
-0.10530334 -0.065645374 -0.095031634 -0.009413084 -0.055114206 0.0068438156 0.021934079 0.09061509
0.004479986 0.008082948 -0.019562302 -0.06147742 -0.06964181 0.029724816 0.057027347 0.02669487
-0.07962654 0.0533824 0.064697675 0.073678605 -0.06593051 -0.026535166 -0.001042462 0.021341698
-0.057619125 0.03807169 -0.06478353 -0.049679037 -0.008828724 -0.090499595 0.09203032 -0.017332658

bias f4 [84]
00000000: c48f 003d cf83 453b 6333 2dbd 5c4b 89bd
00000010: 4625 943d 216c e73d fb9a 003e 778c bd3b
00000020: e065 22be 95ba c03d c34f bf3c 7683 fe3d
00000030: 0df2 59bc a689 30bd df6b 6dbe a75d b1bc
00000040: 54f3 d4bc fb3b f83d 3ba5 373e a90a e3bd
00000050: e8e0 e13c 0ffa d9bc a715 d53d a63a 913d
00000060: 5ab6 b73d 8728 a3bd 5eba 9ebd b509 83bd
00000070: 9420 8cbd c0d1 2ebe 5589 873e 0f42 1ebe
00000080: aa64 34bd d9b4 27bd 2224 8e3d 3cf2 80bc
00000090: b3d7 4a3e db9a 4d3d 7ec2 1d3e d2ee 28bb
000000a0: 77d1 503e be29 52bd 3a10 a63d 5e29 4d3b
000000b0: 5e3a f3bc 4be8 54bd dc55 323d bedb a3bc
000000c0: 27eb 093e 3e97 56bb dc25 0d3e 7ce7 2f3e
000000d0: 54f5 19bd 8831 2ebc 0b57 b63c 9de5 b33c
000000e0: 28de 53bd 05da 943b 679a 54bd 9687 60bb
000000f0: 2cf7 123e 3751 33bd bc99 c7bc 1f8f bbbd
00000100: db9b 7e3d 026a c33e 8b28 e5bd f04e b8bc
00000110: 388c 0f3d d3a7 a73b ebc4 9abd e380 c33d
00000120: f44e bd3d 3f1e 743d 4d8a 85bd 37b8 8ebd
00000130: 7003 aa3d de97 9f3d 2d85 8d3d 79ed 64bd
00000140: 58be 1a3c 110f 2f3e c46c 3a3e d5d2 e63d
0.031387106 0.0030138378 -0.042285334 -0.06703827 0.07233672 0.11299921 0.1255912 0.005784567
-0.15859175 0.09410588 0.023353463 0.12427418 -0.013302338 -0.04310002 -0.23185681 -0.021651102
-0.025994934 0.12120815 0.17934124 -0.11086018 0.027573064 -0.026608495 0.104045205 0.070912644
0.08970328 -0.07966714 -0.077503905 -0.06398336 -0.06842151 -0.17072201 0.26471964 -0.15454887
-0.044041313 -0.040943954 0.069404855 -0.015740506 0.19808845 0.05019651 0.15406224 -0.0025777114
0.20392404 -0.05130934 0.08108564 0.0031305174 -0.029690918 -0.051979344 0.043538913 -0.020002242
0.1346861 -0.0032743956 0.13783973 0.17178148 -0.03758748 -0.010631926 0.022258302 0.021960074
-0.051725537 0.0045425915 -0.051905062 -0.0034260503 0.14352101 -0.043778624 -0.024365298 -0.091581576
0.062160354 0.38166815 -0.111893736 -0.022498578 0.035045832 0.0051164418 -0.0755709 0.095460676
0.09243575 0.059599157 -0.065205194 -0.0696873 0.08301437 0.07792638 0.06910167 -0.055890534
0.009444796 0.17095591 0.18205553 0.11270682

weight f4 [10, 84]
00000000: 1309 023d 6d9f d5bd 24f8 173b bcf2 3bbd
00000010: ad54 243e 7dc5 813c 56f5 633e dd59 8f3b
00000020: 9bb1 e6bc 8d88 af3e 7f37 7a3c abe5 88bd
00000030: 2f97 963d 27ec 9dbd 3b28 94bd 1cce fd3c
00000040: b948 d03c 338f 9d3d 1f54 dabd 079f 993d
00000050: 120d 863c 1739 223c 4704 7abd 468c 21be
00000060: ef94 00be 7f24 603d 8150 313b c8b5 a1bd
00000070: bd0a 5c3c 2a34 70bd cc18 3ebe cea7 84bd
00000080: 0142 4fbc 7df1 363d a78b 2fbe 9041 57bd
00000090: aa05 2d3e b542 bebd 0bbe 44be 438a 6fbd
000000a0: 2d2b 98bd 4434 e0bc b4ed 0abd cac6 c53d
000000b0: d289 e53d 0ac4 94bd 3e24 8e3d 73ff cf3c
000000c0: 2873 103d ad67 4abd 03a9 97bd fc67 803e
000000d0: 71bf 27bc 159f 9fbc abfb f83b e326 013d
000000e0: 3e02 96bd a373 87bb 07cd 283d dd35 8bbd
000000f0: bfe4 01be 2a82 313d 9605 2dbe 39d8 dd3c
00000100: bd2e 9a3d c4ac f2bd d561 07be 8e52 253e
00000110: 9f15 6f3d 81ba d33d 6461 383e e140 abbc
00000120: 036c 78bd 607c f0bd ce5f b03d cdfd 4c3d
00000130: 350d 0b3d f5f6 6ebd 1e5e f8bd c72c a03d
00000140: ba5f 873c 933b 813e d8d1 f63c a2a0 73bd
00000150: c363 2f3c 569d 953c 8399 b2bc e2ac 9cbd
00000160: c0ef 0fbd 8fa1 b83d af94 08bd ba85 42be
00000170: a13e 34bd 4841 cd3d 4493 00be af29 e0bd
00000180: 95c4 843e a9c5 8f3d 3ee2 0d3e c1c4 b9bc
00000190: b6d2 2c3d 1ce1 53be 6596 bbbc 765f 8a3d
000001a0: 64c5 2fbd 260f 41bd ff49 09be 394f 2bbd
000001b0: 8407 6abd c4cf 973d 4ca7 99bd abc1 153c
000001c0: d2e0 233e c824 b6bc 8993 c8bd d332 d03d
000001d0: 0598 a8bc 0045 073d e14f 453d 0500 dabc
000001e0: d7ba 8dbe 7992 0f3b 316f a2bd de82 ee3d
000001f0: 023f e0bd 03ea 78bc 453d 14be 9610 ea3d
00000200: 71c2 ecbd e90a bebd b1e9 22bd 05f9 07bc
00000210: b432 c93d 0e19 28be dc73 31be 4598 59be
00000220: b7b6 2b3e 85f8 943e 9400 5c3e a541 ae3d
00000230: 8a1c 96bd e101 83be 1f10 dfbd b7ba d0bc
00000240: 4715 9abd 1505 bf3d 170c 163e 1e92 bebc
00000250: 1e33 33be 2eee 41be 7fef 683e 8771 a2bd
00000260: e5e0 873e 514f d3bd 4df7 a33e 0e23 25bd
00000270: 6fdd 38be 4a5e c9bd 3139 e8bd 9713 f23d
00000280: 4054 8ebc 4dac f2bd b0e0 d7bd e70f 8ebd
00000290: 60c6 2ebd d871 ddbc 5cf8 023d 9d43 94bd
000002a0: df7e 833c 9285 113d 3ec3 92bd aeba 4dbc
000002b0: aaf2 b5bd 3ad5 403e ddde a9bd c102 383e
000002c0: 7c2a 06be c3f7 f63d 3111 373d 3dda 913c
000002d0: bfb6 20bd d942 853c 88a7 30bd 0cf3 a93d
000002e0: f503 d13a 50a3 c2bd 147b 713e d250 acbd
000002f0: 65ca 99bc a9c0 62bd 251c 43bd dc3e 093e
00000300: 9362 d9bc 8f38 3dbd be9c 753d 320d adbc
00000310: ef62 e9bd 165c f63d d235 be3d 070c 053c
00000320: 170b 08be 4424 cbbb 68c5 5ebd 7490 033e
00000330: db6d 463e 1a23 d9bc 231f 73bd 99c0 1a3e
00000340: fd88 86bb 7319 89bd 12b4 963c 0921 c2bd
00000350: 820d 6c3e ee07 c23d 7515 343d 7453 a2bd
00000360: 59d9 edbd 4f0d 25bc 076e bb3d d9cc 3d3e
00000370: ac22 4c3d fe94 80bd 119e 5abe 5df4 29be
00000380: 3f0c 13bc bc8b c0bd 4c20 66bd 1926 37bd
00000390: 3de8 823b bd61 dcbd 10ee 983d 0013 a8bd
000003a0: 6a60 883e 2100 543e ade1 5fbb d899 6fbd
000003b0: 7cde 143d 4447 64bd 57e7 10be 3cbc 68bb
000003c0: a1f6 193e 2d5a 9cba a34c 273e 9fa7 1ebb
000003d0: e777 f2bb 1962 9c3d ec00 1dbe 06c7 71bd
000003e0: 718b e5bc b823 4abd e985 fdbd f866 68bc
000003f0: 3134 543d d00f 7f3d bf99 18bb 597b 1cbc
0.031746935 -0.10430799 0.0023188675 -0.045885786 0.16047926 0.01584124 0.22261557 0.004374726
-0.02816086 0.34283867 0.01527202 -0.06684431 0.07353055 -0.07711058 -0.07234236 0.03098207
0.025425302 0.07693329 -0.10660576 0.07501035 0.016363654 0.009901307 -0.061039235 -0.15776166
-0.12556814 0.054722305 0.002705604 -0.07896 0.013430295 -0.058643498 -0.18564147 -0.06477319
-0.012650014 0.044663895 -0.17143117 -0.05255276 0.16896692 -0.09290067 -0.1921312 -0.058481466
-0.0743011 -0.027368672 -0.033918098 0.09657057 0.11207928 -0.07263954 0.069405064 0.025390362
0.03526607 -0.04941528 -0.07405283 0.25079334 -0.010238514 -0.019485036 0.0075983605 0.031531226
-0.073246464 -0.004133658 0.041211154 -0.06797383 -0.12684916 0.043337025 -0.16896662 0.027080642
0.07528446 -0.11849359 -0.13220914 0.16144773 0.05837023 0.10338307 0.18005902 -0.02090496
-0.060649883 -0.11742473 0.08612023 0.05004673 0.033948142 -0.058340985 -0.121273264 0.078210406
0.016525138 0.25240764 0.030129358 -0.059479363 0.010704937 0.0182635 -0.021801716 -0.07650162
-0.035140753 0.0901519 -0.03334492 -0.18996325 -0.04400504 0.10022217 -0.12556177 -0.109454505
0.2593123 0.070201226 0.13855836 -0.022676827 0.042193137 -0.20691341 -0.022898862 0.06756489
-0.042912856 -0.047133587 -0.13407134 -0.0418236 -0.057136074 0.07412675 -0.075026125 0.009140412
0.16003731 -0.022234336 -0.09793765 0.10165944 -0.020580301 0.033024788 0.04817188 -0.026611337
-0.2768161 0.0021907373 -0.07931364 0.11646055 -0.10949518 -0.0151925115 -0.14476497 0.11428945
-0.11560524 -0.09279425 -0.039773647 -0.008299117 0.09824124 -0.16415808 -0.17329353 -0.21249492
0.16768919 0.29095855 0.21484596 0.085086145 -0.07329662 -0.2558737 -0.10891747 -0.025479658
-0.075235896 0.09327141 0.1465305 -0.023263033 -0.17499968 -0.18938515 0.2274761 -0.0793181
0.26538768 -0.10317863 0.32024613 -0.040316634 -0.1805322 -0.09832437 -0.113390334 0.11820143
-0.017374158 -0.1184927 -0.105409026 -0.06936627 -0.042669654 -0.027031824 0.031975135 -0.07239459
0.016051708 0.035527773 -0.07166146 -0.012556715 -0.08884175 0.1883134 -0.08294461 0.179698
-0.13102144 0.120589755 0.04469413 0.01780426 -0.03923678 0.016267227 -0.04312852 0.08298311
0.0015946614 -0.09503806 0.23582107 -0.08413853 -0.018773267 -0.055359516 -0.047634263 0.13402885
-0.026536262 -0.046196517 0.059963934 -0.021124456 -0.11395823 0.12029283 0.09287609 0.008120543
-0.1328548 -0.0061993916 -0.05438748 0.12848073 0.19377844 -0.026505996 -0.059355866 0.15112533
-0.0041056857 -0.06694307 0.018396411 -0.09478957 0.23052028 0.09474169 0.043965776 -0.07926074
-0.116137214 -0.010073974 0.091518454 0.18535174 0.049837753 -0.06278418 -0.2134936 -0.16597123
-0.008975088 -0.09401652 -0.056183144 -0.044714067 0.00399497 -0.107608296 0.07467282 -0.08206749
0.26636058 0.20703174 -0.0034161613 -0.058496326 0.03634499 -0.055732027 -0.14150749 -0.0035512587
0.15035488 -0.001192873 0.16337828 -0.0024208797 -0.0073995474 0.07635898 -0.15332383 -0.059027694
-0.028020592 -0.04935047 -0.12379057 -0.014184706 0.051807586 0.06227094 -0.0023285 -0.009550893

bias f4 [10]
00000000: ed23 47bd 0dfa d7be 14b8 053e da69 c83d
00000010: c631 df3e df23 0cbe 2c49 503e e0b7 92be
00000020: 3f35 443e a19d 78be
-0.048618246 -0.4218296 0.13058501 0.097858146 0.43592662 -0.13685559 0.20340413 -0.2865591
0.19160937 -0.2427888
